module attributes {tf_saved_model.semantics, tfl.description = "MLIR Converted.", tfl.schema_version = 3 : i32} {
  func.func @main(%arg0: tensor<1x32x33x1xui8> {tf_saved_model.index_path = ["input_2"]}) -> (tensor<1x4xui8> {tf_saved_model.index_path = ["dense_1"]}) attributes {tf.entry_function = {inputs = "serving_default_input_2:0", outputs = "StatefulPartitionedCall:0"}, tf_saved_model.exported_names = ["serving_default"]} {
    %0 = "tosa.const"() <{value = dense<[28, -83, -55, 110]> : tensor<4xi32>}> : () -> tensor<4xi32>
    %1 = "tosa.const"() <{value = dense<"…"> : tensor<4x160xi8>}> : () -> tensor<4x160xi8>
    %2 = "tosa.const"() <{value = dense<[196, 8, -4, 107, 160, -22, 280, 119]> : tensor<8xi32>}> : () -> tensor<8xi32>
    %3 = "tosa.const"() <{value = dense<"…"> : tensor<8x10x8x1xi8>}> : () -> tensor<8x10x8x1xi8>
    %4 = "tosa.rescale"(%arg0) <{double_round = false, input_zp = 0 : i32, multiplier = array<i32: 1073741824>, output_zp = -128 : i32, per_channel = false, scale32 = true, shift = array<i32: 30>}> : (tensor<1x32x33x1xui8>) -> tensor<1x32x33x1xi8>
    %5 = "tosa.rescale"(%4) <{double_round = true, input_zp = -128 : i32, multiplier = array<i32: 1073741824>, output_zp = -128 : i32, per_channel = false, scale32 = true, shift = array<i32: 30>}> : (tensor<1x32x33x1xi8>) -> tensor<1x32x33x1xi8>
    %6 = "tosa.conv2d"(%5, %3, %2) <{dilation = array<i64: 1, 1>, pad = array<i64: 1, 1, 3, 4>, quantization_info = #tosa.conv_quant<input_zp = -128, weight_zp = 0>, stride = array<i64: 8, 8>}> : (tensor<1x32x33x1xi8>, tensor<8x10x8x1xi8>, tensor<8xi32>) -> tensor<1x4x5x8xi32>
    %7 = "tosa.rescale"(%6) <{double_round = true, input_zp = 0 : i32, multiplier = array<i32: 1453353092, 1578547973, 1344178407, 1975764937, 1637998335, 1472659272, 1962002768, 1326896167>, output_zp = -128 : i32, per_channel = true, scale32 = true, shift = array<i32: 37, 38, 37, 38, 38, 38, 38, 37>}> : (tensor<1x4x5x8xi32>) -> tensor<1x4x5x8xi8>
    %8 = "tosa.clamp"(%7) <{max_fp = 0.000000e+00 : f32, max_int = 127 : i64, min_fp = 0.000000e+00 : f32, min_int = -128 : i64}> : (tensor<1x4x5x8xi8>) -> tensor<1x4x5x8xi8>
    %9 = "tosa.reshape"(%8) <{new_shape = array<i64: -9223372036854775808, 160>}> : (tensor<1x4x5x8xi8>) -> tensor<1x160xi8>
    %10 = "tosa.fully_connected"(%9, %1, %0) <{quantization_info = #tosa.conv_quant<input_zp = -128, weight_zp = 0>}> : (tensor<1x160xi8>, tensor<4x160xi8>, tensor<4xi32>) -> tensor<1x4xi32>
    %11 = "tosa.rescale"(%10) <{double_round = true, input_zp = 0 : i32, multiplier = array<i32: 1909959842>, output_zp = -1 : i32, per_channel = false, scale32 = true, shift = array<i32: 39>}> : (tensor<1x4xi32>) -> tensor<1x4xi8>
    %12 = "tosa.rescale"(%11) <{double_round = true, input_zp = -1 : i32, multiplier = array<i32: 1073741824>, output_zp = -1 : i32, per_channel = false, scale32 = true, shift = array<i32: 30>}> : (tensor<1x4xi8>) -> tensor<1x4xi8>
    %13 = "tosa.rescale"(%12) <{double_round = false, input_zp = -1 : i32, multiplier = array<i32: 1073741824>, output_zp = 127 : i32, per_channel = false, scale32 = true, shift = array<i32: 30>}> : (tensor<1x4xi8>) -> tensor<1x4xui8>
    return %13 : tensor<1x4xui8>
  }
}
